cnn/models/number_cnn_best.pt (torch, 628933 bytes, 10 tensors)

conv1.weight f4 [16, 1, 3, 3]
00000000: a04e 21be 8d27 413e 081c 1cbb f1c4 7a3e
00000010: 0bd1 1b3e 9947 b33e eeef c73e 1447 6b3d
00000020: 73a6 7e3e 3784 023f 2512 de3e eddb 013f
00000030: 071e ed3e a5ed 0b3c 1f8b e43e 3571 ac3e
00000040: 82c8 06be baaf 213e ba29 403e 9684 a3be
00000050: bd5d afbe 8a52 1bbe fda1 d9bd 4ea9 3ebe
00000060: 8a2a 823e 1c4d a63e 6e86 0bbd 37e8 b03e
00000070: ce74 39be 4910 c2bd e9de 5d3e 75d2 c73e
00000080: a72c 06be 4bdf c53e fa91 513e 9ec4 5e3e
00000090: fb96 463e 3fa8 aa3d 2998 803d 4386 593e
000000a0: b939 50bd b51f a93e c636 993e 9b19 6bbe
000000b0: 0f3b 243d ae9b b6bb 5957 3abd c342 8fbe
000000c0: 4e5f 423e 31e9 b73e e509 26bd dd60 de3e
000000d0: 00ba fb3c 985b d13e f43c c73e 3609 d93e
000000e0: d724 23be 6aaf 783d bc05 003e 0034 773e
000000f0: 8fb8 1a3e f5ce d83d 71e6 33be 123c 9f3d
00000100: deff 9bbb 6494 fa3d 8a72 1cbe 19b4 5bbe
00000110: 956e 1f3e a84c 0c3d 1fc0 5ebe 7ad9 5fbe
00000120: da75 8c3e 5fa4 edbd 194e 21be bcf2 81be
00000130: be40 4abe 1ebd aabe 27af da3c 5d19 943d
00000140: 261e 783e 8e98 76be 705a 71be 8cb7 87be
00000150: b3d7 223e 5199 8c3e d49c 033d 1968 b3bd
00000160: dbec 94be a1c1 e53d 7a64 0b3e ba25 e03e
00000170: 98dd 2f3e 46b6 813d b43f ca3e 70bf 34be
00000180: 6d56 bcbe e36c 8dbe d1b4 873e 0b48 72be
00000190: c3cf b5bd e5c1 913e a777 aebd 33c3 25be
000001a0: 4d35 b5bd 2340 423c 3caf 58be e95a 353e
000001b0: d0bd 3abe af8a e33c 3bd8 a13e 157d 5d3e
000001c0: a091 8cbc 601d 993d 818f 153d 5316 9ebd
000001d0: 58c9 933e d6e4 ab3e 67fb a43e a05c 12be
000001e0: e25d f8bd 620c 2fbe e8c8 1d3e 92cd c0be
000001f0: f2cd 6bbe 5fbe 18be 04ef f1bd 5a64 0b3e
00000200: 48ec b23e 12c6 0dbe dfd9 c73e bd41 2a3e
00000210: 4961 833e eaf2 563e 4205 08be f583 2fbe
00000220: cfe5 29be f383 543e 081c 3f3e e5f0 913e
00000230: 1135 353e 0853 0d3e ddcb 36be d5ff d43e
-0.1575265 0.18862744 -0.002382042 0.2448919 0.15216462 0.35015562 0.3905024 0.057440832
0.24868183 0.50982994 0.43373218 0.50726205 0.46311972 0.008540546 0.4463739 0.3368012
-0.13162425 0.1578969 0.18765917 -0.31937093 -0.34251204 -0.15168205 -0.106266 -0.18619272
0.2542308 0.32480705 -0.03406375 0.34552166 -0.18110964 -0.094757624 0.21667065 0.39027753
-0.13102971 0.38646922 0.20465842 0.21754691 0.19393532 0.08332872 0.06279022 0.21242623
-0.0508363 0.33032003 0.299246 -0.22958986 0.040095385 -0.0055727577 -0.045493457 -0.27980623
0.18981668 0.35920098 -0.04053678 0.43433276 0.03072834 0.40890193 0.3891369 0.4238984
-0.15932022 0.060714163 0.12502187 0.2414093 0.15109466 0.10586349 -0.17568375 0.077751294
-0.0047607264 0.122353345 -0.15278068 -0.2145542 0.15569527 0.034252793 -0.21752976 -0.21860304
0.27433664 -0.11603617 -0.15752448 -0.25380504 -0.1975126 -0.3334741 0.026694847 0.072314
0.2423025 -0.24081632 -0.23569655 -0.26507223 0.15902595 0.2746072 0.032131985 -0.087600894
-0.29086956 0.112185724 0.13612548 0.43778783 0.17174375 0.06333594 0.39501727 -0.17651153
-0.36784688 -0.27622136 0.2650514 -0.23660295 -0.08877518 0.28468242 -0.085189156 -0.16187744
-0.08848057 0.011856112 -0.21160597 0.1771046 -0.1823647 0.02777609 0.31610283 0.21629746
-0.017159283 0.07476306 0.03651381 -0.07719102 0.2886455 0.33573025 0.32223055 -0.14293146
-0.12127282 -0.17094567 0.15408671 -0.37656838 -0.2302778 -0.14916371 -0.11813167 0.136125
0.34945893 -0.13845089 0.3903341 0.1662664 0.2566016 0.20991102 -0.13283256 -0.17140181
-0.16591571 0.2075346 0.18663037 0.285041 0.17696024 0.13801205 -0.17851205 0.41601434

conv1.bias f4 [16]
00000000: 59e0 79be 32d2 1ebe 9ceb 9c3e c2ba 83be
00000010: 8ab3 ffbe 62e1 c4be e5c1 debe 994e d83e
00000020: 211a d03e fbbc 7ebe 6da5 4fbe 95a8 d03e
00000030: dd91 bebe 75ec ac3e 7b68 b7be 0321 8cbe
-0.24401988 -0.1550987 0.30648506 -0.25728422 -0.49941665 -0.38453203 -0.43507305 0.42247465
0.40644935 -0.24876778 -0.20277949 0.40753618 -0.3722066 0.33774152 -0.358219 -0.27368936

conv2.weight f4 [32, 16, 3, 3]
00000000: e2be 53bd 4060 f2bc fad9 28bc 4975 933d
00000010: 2390 d9bc 8168 41bb 1229 4e3d 2a61 02bc
00000020: f137 96bd 7172 53bd 4578 423d 4e89 4e3d
00000030: 3b9e 87bd af69 5dbd 6012 db3c 6a05 d9bc
00000040: 872c bbbd 5ae0 143d 2436 cbbd 003f afbd
00000050: 2bb6 d5bc a6bc 98bd ef16 3ebb c8b6 b7bd
00000060: 1973 83bd 530f 51bd 9fed 9ebd ab8c 5fbd
00000070: a4c3 0f3d bea0 c2bd d7f3 6bbd 1ea0 9ebd
00000080: 23fa 203d 7c3f eabb 1e39 91bd e136 f8bc
00000090: a71a f0bc 4671 86bd 8c4c 673b de05 8c3c
000000a0: b54e 053d 3c5a cebb 1637 cabc 93b2 8dbd
000000b0: b52d 08bc fe20 4bbd b960 fb3c c396 ffb9
000000c0: a6b0 753d ada7 0f3d 57e6 6d3c 7bb2 65bd
000000d0: e0a6 16bd 8844 62bc c66a 8dbd cc87 edbc
000000e0: 854e bdbd 5c3e 1c3d b1b5 493b c66b b7bc
000000f0: a1b5 0e3d 0549 1b3d c050 8cbd 5e82 213b
00000100: a13c 81bd 7db7 04bd 8eaa 3d3d 150a 3d3d
00000110: 501d 8e3c c155 5abd e9a3 2ebc af52 55bc
00000120: f675 8bbd 1387 4b3d 91a2 9a3c b11a 7cbc
00000130: 4b3e 4ebd bee3 1c3c 32b9 aebd 9397 30bd
00000140: 616c 603c 1090 a8bd 98a5 1abd 4cb8 aabc
00000150: ea3d 3a3d 769f 44bd 0090 89bb 68fc 31bd
00000160: d075 d43c 5c49 8e3c 8ea8 acbd 9bbe 14bd
00000170: beb0 b0bd b0f5 033c d462 893d 5709 4b3d
00000180: 4e79 60bd f520 2abd 8fff 51bd 77d3 c4bd
00000190: 7e64 d63c 4bd6 c83a a168 debd 1bcb 5e3c
000001a0: 675a 9dbd f730 6fbd b18c 7dbd da70 8bbd
000001b0: c9f5 833c 1d94 4cbd 28d7 4ebd c7f0 2ebc
000001c0: a42f 81bd 1f07 af3c fc75 983d a2db 2a3c
000001d0: 0d96 f4bc 5ec5 48bd b0fd a6bb f0a4 9abd
000001e0: 5d39 3dbc 8095 b2bd 8a0d be3c 1c1d 8b3d
000001f0: 672a 203d e7e2 903c 92af 353d 445c 84bd
00000200: 0572 9f3b 3ab2 963c b1ce 90bd 59c4 2cbd
00000210: 25a8 62bd 9f99 6a3d 92fe 85bd 05da 90bc
00000220: 405a 42bd 4f1e 1f3d 151d 96bd 5cbe b8bb
00000230: f66f 3abd 6bac 6c3d 9fd5 bfbd 2a4b 993b
00000240: f5b3 8c3d fb37 af3d 58d2 9e3d 7514 8cbd
00000250: 8a2b d4bd d221 713c df5d b43c d1a1 5fbd
00000260: 3052 23be f80e 1c3d 4b0e a6bb 5659 293d
00000270: 52da aa3d 18cc 873c ed6b 213d 1c10 12bd
00000280: 59bc 50bd 76c6 03be b240 00be 5275 5cbc
00000290: 933c 31be bc2a 003d 1f90 b9bc b403 68bd
000002a0: fd32 063e f378 9f3d e4fe 193a 67f8 003e
000002b0: 7595 ea3c 7852 08bc 279d 943d 0c60 05bd
000002c0: fc85 31bd c321 253d 1370 afbd 3197 84bd
000002d0: 4d6b 003d cd9f 793d 7e2a 3f3c 19d7 7a3d
000002e0: d80e 2dbe 38c1 fbbd 6515 28bd d9a7 70be
000002f0: 20f5 8dbe b8a8 a7bc 7c68 4fbd 1283 09be
00000300: 5bca 4fbd 7882 85be 9898 90be 870d 823d
00000310: 6cb6 31be 87b5 47be b9c5 0c3e 2347 2e3e
00000320: a264 7f3d 1a45 15bd 2ca6 34bc 6075 a9bd
00000330: 1909 40bd 690e aabd 0c73 93be 6e41 bf3d
00000340: 57e9 d53d 4379 ee3d 4f21 c93d 5b08 143e
00000350: c15f 1d3e 6a4e 9dbc 505c c73d 1762 1d3e
00000360: 4cad a9bd 8de6 9bbd 7fcc d3bd 8d4c 133c
00000370: c5f5 e93b 7602 3d3d 6c58 4ebc cf2e 183e
00000380: a6b0 ec3d 8d19 23bc 7208 a43d 2c6f af3d
00000390: d8a3 8abd 721c 6c3d 5c35 78bd c9a4 833d
000003a0: a03e 46bd 0cee 803c 6940 fd3c 02c0 6f3e
000003b0: 3434 523e 898a b9bd 4d9b 7cbc d2d7 803c
000003c0: 220a 53bd 92e2 02be 0791 6bbe 4626 b7bd
000003d0: ca7e 6a3c ab20 343d ed80 203d 7e40 c83d
000003e0: 3bea 183e 6930 ecbc b6c5 133e fb65 123e
000003f0: f5dd a4bc ea7b 57bc 681d d03d 472a b6bd
-0.051695712 -0.029586911 -0.010305876 0.07200105 -0.026557988 -0.0029511752 0.050332136 -0.007957736
-0.07334889 -0.05162281 0.04747798 0.050423913 -0.06621977 -0.054055866 0.02674216 -0.02649184
-0.09139352 0.03634677 -0.09922436 -0.08556938 -0.026087841 -0.07457857 -0.0029005369 -0.0897041
-0.064184375 -0.051040005 -0.077601664 -0.05457751 0.035098687 -0.095033154 -0.05760559 -0.07745384
0.03930105 -0.007148681 -0.07090972 -0.030299606 -0.029309584 -0.06564574 0.0035293428 0.017092641
0.032545764 -0.006297378 -0.02468447 -0.06918826 -0.008311679 -0.04959201 0.03068577 -0.00048749716
0.05998292 0.035072017 0.014520249 -0.056078415 -0.03678024 -0.013810284 -0.06905131 -0.028995417
-0.09243492 0.038145408 0.0030778463 -0.022390258 0.034841184 0.037911434 -0.06851339 0.0024644355
-0.06310392 -0.03240155 0.04630523 0.046152193 0.017347962 -0.053304438 -0.010659196 -0.013020202
-0.06809609 0.049689364 0.018876346 -0.015387223 -0.050352376 0.009575782 -0.08531417 -0.043113302
0.013697715 -0.08230603 -0.03775558 -0.020839833 0.045469202 -0.048003636 -0.0041980743 -0.043453604
0.025935084 0.017368965 -0.08430587 -0.036314588 -0.08627461 0.008054182 0.06708303 0.049569454
-0.054803185 -0.041535337 -0.05126911 -0.09610646 0.026170965 0.0015322653 -0.108598 0.013598229
-0.076832585 -0.058396306 -0.061901752 -0.06808634 0.01610841 -0.04994594 -0.050498158 -0.010677523
-0.06307915 0.0213657 0.07444379 0.010428341 -0.029856706 -0.04901635 -0.00509616 -0.075509906
-0.011549321 -0.08719921 0.023199815 0.067926615 0.039102938 0.01768632 0.04435689 -0.06462911
0.004865887 0.018395532 -0.07070673 -0.04217944 -0.055336136 0.05727541 -0.06542696 -0.017682085
-0.04744935 0.038847264 -0.07329766 -0.005637927 -0.04551693 0.057781618 -0.09366917 0.0046781497
0.068702616 0.08555599 0.07754964 -0.06839839 -0.10359867 0.014717536 0.022017417 -0.05459768
-0.15949321 0.038100213 -0.005067622 0.041344963 0.083424225 0.016576812 0.039409567 -0.035659894
-0.050960872 -0.12868676 -0.1252468 -0.013455706 -0.17308263 0.031290755 -0.02265173 -0.056644157
0.13105388 0.07786741 0.00058744685 0.12594758 0.02863572 -0.008320443 0.07256537 -0.0325623
-0.043340668 0.0403154 -0.08566298 -0.0647415 0.03135233 0.060943414 0.011667846 0.06124029
-0.16900194 -0.12292713 -0.04103603 -0.23501529 -0.27726078 -0.020466194 -0.050636753 -0.13428906
-0.05073009 -0.26076102 -0.2824142 0.063502364 -0.17354745 -0.19502841 0.137473 0.17019324
0.06235183 -0.036442854 -0.011025947 -0.08274341 -0.046883676 -0.0830353 -0.2879871 0.093386516
0.10444897 0.116442226 0.09820806 0.14456312 0.15368558 -0.01920243 0.09734404 0.1536945
-0.08285007 -0.076123334 -0.10341739 0.008990419 0.0071398937 0.046144925 -0.012594324 0.14861606
0.115571305 -0.009954822 0.08009423 0.08566126 -0.06769532 0.057644315 -0.060597762 0.06427915
-0.048399568 0.01573851 0.030914502 0.23413089 0.20527726 -0.090596266 -0.015417886 0.015727911
-0.051523335 -0.12781742 -0.23004542 -0.08942847 0.014312455 0.043976467 0.039185453 0.09777926
0.14933102 -0.028831678 0.1443089 0.14296715 -0.020125369 -0.013152102 0.10161859 -0.088947825

conv2.bias f4 [32]
00000000: a5b8 50bd 4844 d73d 0b5e 9ebd 7019 90bd
00000010: 973e cb3d 79af 65bc f7c9 adbd f6b3 5d3c
00000020: 02d1 55bd 44ff 86bc 2ba3 193d 445f 93bd
00000030: 782b 85bd 93b8 a7be fc67 6c3b 769e f0bd
00000040: 4808 fb3d 4542 b33c 1193 fcbc b032 5abd
00000050: 32c0 a5bd 34c7 a8bd e753 b73d 00b1 3bbd
00000060: a9e8 60be f280 c23c 56f3 8f3c f59f 173d
00000070: f307 98bd e972 903d e7d5 3f3d 85de b33d
-0.05095734 0.105110705 -0.07732781 -0.07036102 0.099240474 -0.014018887 -0.08485787 0.013531676
-0.05220128 -0.016479142 0.037509125 -0.07195905 -0.06502432 -0.32758006 0.0036072722 -0.11748974
0.12257439 0.021882186 -0.030831845 -0.053270996 -0.08093299 -0.0824112 0.0895155 -0.045823097
-0.21963753 0.023743127 0.017572086 0.03701778 -0.07423391 0.070531674 0.046834853 0.087826766

conv3.weight f4 [64, 32, 3, 3]
00000000: 6afc cbbc 5574 45bd 0d44 e83c dd01 433d
00000010: 9920 883c 0ff2 52bd debf 453d db90 19bd
00000020: d9bf 57bd 3eac 17bd 8294 b53c 4cb0 c8bc
00000030: 7660 8bbd adb8 ca3c ca70 a0bd 8d4b 92bd
00000040: 9574 aabb e861 113d 7b67 cebd f747 d9bd
00000050: 1634 eabd 39b3 e2bd 0f0c 00be fc2a e6bd
00000060: 3b9d cabd 32cc 613c 7132 2cbd 236b 653d
00000070: d8c3 fbbd 032c 2dbe 010b 163d 59b9 a7bd
00000080: 7872 63bd c429 a13b c53b 24be 4b94 09be
00000090: 7d90 f93c 50ea 92bc a5a1 16be a4a0 13bd
000000a0: 9a51 c4bb 9c44 c3bd af48 3f3c 63ea 143d
000000b0: a84c cf3d b8ee d13c 8b7d c43d b17f a8bc
000000c0: 222e 4fbd 875d 683c 6544 91bd 858c a4bd
000000d0: f337 533d e975 353d 6422 613d 2201 313d
000000e0: c2a6 dc3d 9ff9 b63d ab6a 873c b8b8 b33d
000000f0: c3bc 203d 18ad a33b 8f8f 60bc ba63 c7bd
00000100: 15d4 a03c 281a a73c 473e aebd fb7b aabd
00000110: ab31 7abb 0576 4dbd 188c cb3c 4a9a 533d
00000120: 9f68 7a3d 23a8 1b3c b39b 8fbb a948 253c
00000130: 8103 4b3c 54b0 99bd a56a 2cbd 97c7 063d
00000140: 6fe6 18bc f683 a23d 949a 4b3d 9a45 acbd
00000150: 9a14 843d f9ed 1c3d 6264 74bd 0949 1bbb
00000160: b6b9 20bc c22a 573b 7e1c 60be c1b5 6a3d
00000170: 0f69 093e f008 1abe 8369 01be a8d3 7d3c
00000180: ac81 33be 29a9 26be 1cba bdbc 9891 aa3c
00000190: 6a21 003d 5c1c 02bd da46 c83d 1168 8a3d
000001a0: f83c 643d 5aab 133d 84ae 923d 4b5d 773d
000001b0: d8d2 37bc d79b 813c a319 32bd 95f8 583d
000001c0: f663 1dbd 7463 f6bc 0316 f1bc 5cc1 cbbc
000001d0: eadb 43bd 3fe5 963d c17f 86bd c15d a0bd
000001e0: 63c5 053d b6e4 39bd a349 d0bd 4f8d fb3c
000001f0: b32a 26bd d105 32be b647 af3d 5d55 a9bd
00000200: 5909 23be 4fc7 da3d 78d5 c5bd 4cdc 6abd
00000210: 23e0 b73c 64a1 a7bb 4447 18be 0f28 dc3b
00000220: adc9 94bd 58c3 31be 3715 e83d 017b cbbd
00000230: 3312 e2bd 904d 9f3d 005f 1dbd cbca 63be
00000240: 3bc2 1bbd ba84 1c3a fa28 9ebd 9a02 1bbd
00000250: 4008 f0bb 5ee6 08bd 84d3 d3bc 34d2 183d
00000260: 1b9c 1c3c b737 1abe a95e 143c 8461 303d
00000270: 5751 07be f4c0 08bd 7aff 00bd fab8 20be
00000280: 4eb3 2abc 8251 0d3d b334 d4ba cf93 b4bc
00000290: 9439 323b bd52 d2bc cba8 a4bc 1f0d e8bd
000002a0: 8ee5 84bd 4817 673d 5419 37bd e21e f03d
000002b0: cf0f 803d 5a70 1fbd 6a68 a23c 3319 43bd
000002c0: 6a1f 96bd 0a0e b0bc ba79 14bd d74a 123d
000002d0: 581a 4f3d f6f6 acbc f7a3 adbd 8528 e63c
000002e0: 1b7a b53c a797 d3bc e35d 22bd c439 f8bc
000002f0: 5954 55bd cf35 52bd a8e8 a9bc 9cbc 30bc
00000300: aa67 00bd 9c91 26bc 205a dd3a 5eec 4abd
00000310: dd83 403d a793 3cbd d621 7cbb 5625 91bd
00000320: 4508 47bc bb53 f9bd dd1f 9b3c 0efa b0bd
00000330: 3e07 89bd 96dc 1d3d d076 83bb 4f6f a53d
00000340: 28e2 eebd 373c d5bd 755b 063d f8f2 02be
00000350: e5ca fabd d6d9 ab3c 571e 9cbd c390 42be
00000360: da77 763d 2323 c1bd b2e1 13be 5778 c63d
00000370: c61c 36bd 676f 97bd 8049 6f3d 5990 e2bd
00000380: 1567 17be 84bb 223d 3b5c 86bd 1c1d 16be
00000390: 09ea 7c3d 48f1 1cbd b890 c3bd 5399 bd3c
000003a0: 68b7 abbd 44e6 47be a006 81ba 8295 22bd
000003b0: 8b6a 1f3d 9cd7 02bd a6c4 32bd a3c4 083d
000003c0: 88c2 f93c e18f 013d d1e0 093d 4651 fd3c
000003d0: 80a6 7dba 08b8 cdbc 062d ea3c 1bdb 2b3d
000003e0: 7cbc 9fbb 24dc 12bd c9ee 4d3b a66a b53c
000003f0: d8e6 963e 990a 93ba 7146 d8bd 5753 d13d
-0.024900634 -0.048206646 0.028352762 0.0476092 0.016617106 -0.051500376 0.048278682 -0.03749166
-0.052673195 -0.037029497 0.02216554 -0.024498127 -0.06805508 0.024746263 -0.07834013 -0.071433164
-0.005201886 0.03549376 -0.10078331 -0.10609429 -0.11435716 -0.1106934 -0.125046 -0.11238667
-0.098932706 0.013781594 -0.042040292 0.056010377 -0.122932136 -0.1691132 0.036631588 -0.08189649
-0.055529088 0.004918309 -0.16038425 -0.13435476 0.030464405 -0.017933995 -0.147101 -0.03604187
-0.005991173 -0.095345706 0.011675044 0.03635634 0.10122043 0.025626525 0.09594258 -0.0205687
-0.050581105 0.014182455 -0.07093123 -0.080346145 0.05156703 0.0443019 0.054964438 0.04321397
0.10773994 0.0893433 0.016530355 0.08775467 0.039242517 0.0049949996 -0.013706102 -0.09735818
0.019632379 0.020398214 -0.08507972 -0.08324429 -0.0038176577 -0.05016138 0.024847075 0.051660813
0.06113493 0.009500536 -0.0043825745 0.010088124 0.012390972 -0.07504335 -0.04209389 0.032905187
-0.009332283 0.07935326 0.049707964 -0.08411713 0.06449242 0.038312886 -0.059666045 -0.0023694655
-0.009809902 0.0032831882 -0.21885869 0.05730224 0.13418983 -0.15042472 -0.12637906 0.015492357
-0.17529935 -0.16275467 -0.023160033 0.020821378 0.031281866 -0.031765327 0.09779139 0.0675813
0.055722207 0.036052085 0.071621925 0.060391705 -0.011219703 0.01582138 -0.04348148 0.05297144
-0.03842541 -0.03007672 -0.029429441 -0.024872474 -0.04781715 0.07367944 -0.06567336 -0.07830382
0.032658946 -0.04538413 -0.10170295 0.03070703 -0.040568065 -0.17385031 0.085586 -0.08268235
-0.15921535 0.10682546 -0.096598566 -0.057338998 0.022445744 -0.005115675 -0.14870936 0.0067186425
-0.07265029 -0.17359674 0.113321714 -0.099355705 -0.110386275 0.07778466 -0.038420677 -0.22245328
-0.03802703 0.00059707055 -0.077226594 -0.037844278 -0.007325202 -0.03342282 -0.025857694 0.03730984
0.009558703 -0.15060316 0.009055772 0.04306175 -0.13214622 -0.03338714 -0.03149364 -0.15695563
-0.010418726 0.03450156 -0.0016190022 -0.022043137 0.0027194964 -0.025674218 -0.020100018 -0.11330628
-0.064890966 0.056418687 -0.04470189 0.117246404 0.06253015 -0.038925506 0.01982518 -0.047631454
-0.073302105 -0.02149107 -0.0362489 0.035715904 0.050562233 -0.021113854 -0.084785394 0.028095493
0.022152951 -0.02582915 -0.03964032 -0.030300982 -0.052082393 -0.051320847 -0.020740822 -0.0107871555
-0.03134886 -0.010166552 0.0016887821 -0.049541824 0.047000755 -0.04603925 -0.0038472316 -0.070871994
-0.012147968 -0.121741734 0.018936092 -0.08641444 -0.066908345 0.038540445 -0.0040119663 0.08077871
-0.1166423 -0.10411876 0.032802064 -0.12787998 -0.1224573 0.020977896 -0.07622974 -0.19000535
0.060172893 -0.0943053 -0.14441565 0.09690922 -0.044461034 -0.07394295 0.058419704 -0.110626884
-0.14785416 0.03972961 -0.0656056 -0.14659542 0.06174663 -0.03831604 -0.09549087 0.0231444
-0.08384591 -0.19521433 -0.0009843893 -0.039693363 0.038919967 -0.031943902 -0.04364457 0.033390652
0.030488268 0.031631354 0.033661667 0.030922543 -0.00096759945 -0.025112167 0.028585922 0.041957002
-0.004874764 -0.035854474 0.0031422845 0.02214558 0.29472995 -0.0011218368 -0.10560311 0.10220974

conv3.bias f4 [64]
00000000: 8d4a 31ba ca77 613d f178 8c3d f02c fabc
00000010: ab9f f73d 873f 88bd 7be5 563d 9c24 49bc
00000020: f865 87bc d03e 35bd 7d82 ea3b dde7 e73c
00000030: 1cd9 97bd 69d0 2f3b 4b51 d0bb 4e60 583c
00000040: 6285 ca3b 3dbe 013b 5a87 10bd 2d53 82bd
00000050: af76 d13d 0497 42bc 0b12 cdbc bee0 993c
00000060: ccba f73c b90b 693a 5444 9f3c 83e2 44bd
00000070: f26e 353d 6d34 57bd 04b6 b6bc 53fa f93b
00000080: 9bc3 1b3d 308c ee3d cad4 a9bc 1a7b 55bd
00000090: 1c54 5abb b245 63bd 891a 98bd ab66 43bc
000000a0: d252 b83b 0e6c 1fbd 3a09 9dbd 6abc 59bc
000000b0: 239c 04bd f6e6 4b3d eb3b 38bd d2c3 c5bc
000000c0: e4aa 723d a550 7d3d 79de e53c fdc0 b13c
000000d0: e54c 013c e7dd 84bd be69 4f3d e566 bb3d
000000e0: ae36 35bd 3610 103d 543c 6bbd 8dac 543d
000000f0: 0174 b0bc 5c55 91bc d915 c1bd 7679 36bd
-0.0006763123 0.05504588 0.06859005 -0.030539006 0.12091001 -0.06652742 0.052464943 -0.012276795
-0.016528115 -0.044249356 0.0071566687 0.028308803 -0.07414457 0.0026827103 -0.006357347 0.013206555
0.0061804513 0.0019797229 -0.03528533 -0.06363521 0.10227715 -0.011876825 -0.025033018 0.018783923
0.030240439 0.00088899914 0.019441761 -0.04806758 0.04429526 -0.05254023 -0.022303589 0.007628718
0.03802834 0.116478324 -0.020731349 -0.052119352 -0.0033314293 -0.05548639 -0.07426936 -0.011926333
0.0056251073 -0.03892141 -0.076677755 -0.01328955 -0.032375466 0.04978081 -0.044979017 -0.024141226
0.059245005 0.061844487 0.028060185 0.02169847 0.007891868 -0.06487637 0.050637953 0.09150485
-0.0442416 0.03517171 -0.05743058 0.05192237 -0.02153969 -0.017740898 -0.09427995 -0.044549428

fc1.weight f4 [128, 1024]
00000000: e812 2f3c 7aee 5c3d 98ce 24bd 16c2 98bc
00000010: 9035 1ebd 8c26 1d3d cf5c 1e3d 7817 61bc
00000020: 813b f9bd 3160 75bd f00a 2c3d 36ca 32bd
00000030: f6ae f0bd 0f06 8cbd 7d8d 67bd 12c4 35be
00000040: 1f58 b23d a664 393d 0d88 7f3c 6fc1 f03d
00000050: e4f7 5f3d 9aef d93d 6d96 193d c774 213c
00000060: 4d87 a2bc a6e5 d8bc 2224 733d f82f 4b3d
00000070: 77e1 60bd 47c1 563d 43e5 97bc 0877 b6bc
00000080: 9dc2 1b3d 3551 d93d d095 903d 6aa3 153d
00000090: 0858 953d 9c6d b03d 0b15 133c 6c27 2f3d
000000a0: 92e3 b7bd c3c8 23be c05b b13d 44d0 853d
000000b0: 2839 48be 8997 dc3a f46d 0d3d d12e 21bd
000000c0: 18a2 043d c6f1 16bc 34c7 b53c 25eb 47bc
000000d0: a936 f53c d354 a5bb 9f85 293d 9c6c cd3c
000000e0: f2a8 a03c 2ae1 813c 6489 74bc ed57 163d
000000f0: 6efd 2e3c 43d4 553c 88b6 ac3c a9d2 b83c
00000100: ca9b 993d 2499 a9bb cd88 35bd 9c22 df3c
00000110: 3980 bf3d 6656 4b3d 4a95 0f3e da12 e83d
00000120: c2cd 2abe 07fd 88bd 5df6 d73c 4bcc d93d
00000130: 0587 69be f636 bdbd d2a7 8abd 31a0 3cbe
00000140: 98e6 be3c 4c2c ad3c ce8d ffbc 78f6 73bc
00000150: a066 8d3c c0a3 383a dba1 153c 802e f1bb
00000160: 204f 843c 6c11 febc b8ea a03b 52ad 883c
00000170: 1656 c13c dee2 fbbc 90f7 12bc f806 c53c
00000180: ca53 38bd 5cf1 cc3b 1b1a 89bc 87e6 0a3e
00000190: eef3 143d d9ae 48bd 43cd 8abd dca2 bf3d
000001a0: 6dcf 2f3e 9bd8 85bd 8abc 5e3d 6604 51bc
000001b0: d62a 183e 4f65 e1bb 701c c93d 9e1f 22be
000001c0: d908 f7bc ecb0 adbc f07e 6f3c a630 c33c
000001d0: fc71 d8bc cade 9f3c d0c1 213c c8a9 9e3c
000001e0: 901d 88bb 2401 8d3c 24d4 1d3c 1cf5 8f3c
000001f0: 10ea f23c f041 073c b477 dfbc b60c 893c
00000200: 0399 7bbb f497 3c3d f8b1 08bd 7350 533d
00000210: f24b 96bd 1746 0e3d bd5f 8bbc d82b 573b
00000220: 0b72 ac3b 4de8 61be 9413 9c3c 5c4d a3bd
00000230: 6358 7ebe c684 ffbd 9805 96bd b523 0cbe
00000240: acda 9b3c b6c8 4f3c 0cac febc 30cc 013b
00000250: 747c d1bc e04c c83c 6085 c73b 5ee2 9dbc
00000260: 64d1 3abc ec53 cb3c f88e 923b e0c9 f6ba
00000270: 8169 d3ba 988c 2d3c e813 073c 44cb f1bc
00000280: 5497 ddbc 14be 07bd 6bc0 173d 2437 293c
00000290: c6fa 19bd 467f f3bc a356 debc 88c4 de3c
000002a0: 815b a6bc fac1 7b3d d145 513d c0bb 7e3d
000002b0: 654d 483c 84d2 183a b12e 563d bf6b fb3c
000002c0: 40f7 6f3c 94d6 fb3d 4267 7a3c 19a7 88bd
000002d0: ae8f b7bc 8a11 1e3e 073a 72bd 8b81 213d
000002e0: 4383 2cbe fa73 0abe 8b76 e13c 335d df3c
000002f0: a2ff 24be 5fa2 ebbc 2e04 76bd 3308 ed3c
00000300: f833 49bc 9484 3fbc b8c9 173c 7e9b 9b3c
00000310: 3cec b83c c6af e53c 303c c0bc 18da 95bc
00000320: f82a 83bc 5467 143c 14e8 e5bc 14e0 f4bc
00000330: d04c 10bb 8cd1 16bc 2c48 21bc 5e1f ecbc
00000340: 1945 063d 113f ac3d 672c 053d 8eaf 213d
00000350: 1e43 3a3c 7580 5a3d b8b0 263d 13f2 663d
00000360: 24b8 593d 6c2a 753d 4e99 e43c 4d41 4e3d
00000370: 813e 00ba 6a24 2f3d 87da 3abc b929 533c
00000380: e851 b83d 38bc 2ebb 7a10 04bb ebc8 82bd
00000390: 1434 b23d 6428 263e 3b74 e6bc d5bd 17bd
000003a0: 3b2d 41be d440 35bd 7f2d 78be b2c6 bdbd
000003b0: 5aae d7bc 3b15 dabc 02ff 69bd 759a d8bd
000003c0: ce9c a33d 52e1 903d 5a22 363d af5a 3bbb
000003d0: c052 1b3b e366 003e 0cd6 713d 6a76 b0bd
000003e0: 2758 71bd 516e 05bc 9dba 96bd bb37 e9bd
000003f0: d7d7 01bd dfd8 103c d7c4 1ebe 8a4d e8bd
0.01068566 0.053938366 -0.040236086 -0.018647235 -0.0386253 0.03836684 0.038662728 -0.013738506
-0.121695526 -0.05990619 0.04200262 -0.043649875 -0.11752121 -0.06837093 -0.056531418 -0.17750576
0.08708214 0.045262 0.015596402 0.117556445 0.054679766 0.106414035 0.037496973 0.009854502
-0.019839907 -0.026476692 0.05936063 0.049606293 -0.05490252 0.052430417 -0.018541938 -0.022273555
0.038027395 0.10611192 0.070598245 0.036532797 0.07292181 0.08614656 0.008977185 0.042762205
-0.089789525 -0.15994553 0.08660078 0.06533864 -0.19553053 0.0016829829 0.034528688 -0.03935129
0.032381147 -0.009212917 0.022189714 -0.012202059 0.02993329 -0.005045512 0.041387197 0.025076203
0.01961181 0.015854437 -0.014925335 0.036704946 0.0106805395 0.013051095 0.021083131 0.022561388
0.075004175 -0.0051757265 -0.044319917 0.027238183 0.093506284 0.049642943 0.14021793 0.11331721
-0.16680053 -0.06688886 0.026362592 0.10634669 -0.22805412 -0.092389986 -0.067702904 -0.18420483
0.023303315 0.021139286 -0.031195547 -0.014890306 0.01726085 0.00070434436 0.009132828 -0.0073602796
0.016151011 -0.031014167 0.004910793 0.016684208 0.02360062 -0.030747827 -0.008970156 0.024051175
-0.045001782 0.006254358 -0.01673608 0.13564502 0.036365442 -0.048994873 -0.06777432 0.09357235
0.1716897 -0.06535455 0.054379024 -0.012757396 0.1486009 -0.006878532 0.09819877 -0.15832373
-0.030155586 -0.021202527 0.014617667 0.023826908 -0.02642154 0.019515414 0.009872869 0.019368067
-0.0041539147 0.017212458 0.009633098 0.017572932 0.029652625 0.008255467 -0.027278759 0.016729694
-0.0038390763 0.04604335 -0.03337285 0.051590394 -0.07338704 0.03473481 -0.017013425 0.003283253
0.0052626184 -0.22061272 0.019052304 -0.079737395 -0.24838404 -0.124764964 -0.07325286 -0.13685496
0.01902517 0.012682131 -0.031087898 0.0019805543 -0.02557204 0.02445072 0.0060888976 -0.01927298
-0.011402462 0.02482029 0.0044726096 -0.0018828474 -0.0016129465 0.010592602 0.008244492 -0.02951587
-0.027049698 -0.033140257 0.03704874 0.010328088 -0.03759267 -0.029723775 -0.027140921 0.027193323
-0.020307304 0.061464287 0.051091973 0.06219077 0.012225484 0.0005829709 0.052290622 0.030691026
0.014646351 0.12296787 0.015283408 -0.06672496 -0.022407379 0.15436378 -0.05913737 0.039430182
-0.16846947 -0.13520804 0.027522346 0.02726612 -0.16113141 -0.028763948 -0.06006258 0.028934574
-0.012280457 -0.011689324 0.009264402 0.018995043 0.022573583 0.028037917 -0.0234662 -0.018292472
-0.0160117 0.0090578385 -0.028064765 -0.029892005 -0.002201844 -0.009205233 -0.009843867 -0.02882355
0.03278074 0.084104665 0.03251305 0.039474063 0.011368541 0.053345162 0.040695876 0.056383204
0.053154126 0.05985491 0.027905133 0.050355244 -0.00048921263 0.042759337 -0.01140464 0.012888365
0.089999974 -0.002666248 -0.0020151422 -0.06385978 0.08701339 0.16226345 -0.028131595 -0.037046272
-0.1886491 -0.044251278 -0.24236105 -0.09266414 -0.026328254 -0.026621452 -0.05712796 -0.10576335
0.079888925 0.070742264 0.044466354 -0.0028587987 0.0023700446 0.12539248 0.05904202 -0.08616336
-0.05892196 -0.008143977 -0.073598124 -0.11387583 -0.03169998 0.008840769 -0.15504776 -0.113429144

fc1.bias f4 [128]
00000000: 3b10 943e 79a1 9d3c 0065 54bd ff4e a43c
00000010: 99b6 32bd aa1e c7bc b728 093e c528 dd3c
00000020: 35b0 08be f19e 14bd 142e bebd 6c77 7abd
00000030: 7a32 ee3d 2394 45bc 26d2 4fbd d36d 373e
00000040: a89e 323c c85e 8dbc 9dfd 533d 0508 aa3c
00000050: b0bb e43c 9809 183e 13fb 733c 0aae 5a3e
00000060: 4526 3c3e 352b 68bd eac6 9bbd cf03 08bd
00000070: 02ec 893d 8012 33bd a597 d2bc b9a2 3d3e
00000080: 13b7 d8bc c2dc 8a3d 79fd c3bc 9dea b1bb
00000090: df52 6f3d 2424 2e3e deb2 163e 9f42 493d
000000a0: 36c5 f3bc cbe1 653e 25ad cb3d 3260 d7bc
000000b0: da72 203e f57d 8cbc 57b7 813b e9ba 8ebc
000000c0: 98d1 afbc 22b3 debc f0a3 50be a2f3 4c3e
000000d0: be50 c73b 978f a7bc c559 87bd dd35 05bd
000000e0: 97c1 8abd d197 d3bc 0207 24bc fe84 813c
000000f0: 1173 55bc e74d d33d 22e5 02bd 719e 08bc
00000100: 09a5 953c 9178 da3c f74a 87bb 5a6a 31bb
00000110: 901c 42bd 1c56 a23c d4e9 cd3d 9076 6fba
00000120: 6b11 30bd ced1 703d 6ad0 f53c 47e7 773d
00000130: 4169 a33e 1d61 2fbd 0aec f23c 7803 2bbd
00000140: d47b 0bbc 9da9 83bc 59e8 0bbd 0e99 993c
00000150: b7da 47bd a7cc ecb9 509e 2bbd fc92 ddbc
00000160: 2c59 9cbc 412f 31bd 11d6 48bc 2a5a 7dbc
00000170: aa46 153e 7adb 143e d190 7ebc 2aee 11bc
00000180: fcaa ae3b 3978 26bc 4ac9 1d3e 1665 d73c
00000190: 3821 06bb 5d59 923c 9c34 cdbc ac79 96bd
000001a0: f7e6 00bd 8ec3 13bd 3aa1 203c 63ac 2abc
000001b0: e7a1 013e 74fa 963d d04f 103c deb5 4c3b
000001c0: 7e59 a4bd c2b1 123e 1812 aabc 8ae2 2f3e
000001d0: b17c 3bbd 3ef8 9abd 58d1 813e 760d 82bc
000001e0: 5157 5f3d 1ff9 15ba 386b d13d 6552 9abc
000001f0: 5b31 f63d ca36 613d a5db 5bbd 35b9 593d
0.28918633 0.019242035 -0.051854134 0.0200572 -0.04363117 -0.024306614 0.13394438 0.02699698
-0.13348468 -0.03628439 -0.092861325 -0.061149046 0.116307214 -0.012059244 -0.050737523 0.17912988
0.010902084 -0.01725711 0.051755536 0.020755777 0.027921528 0.1484741 0.014891404 0.21355453
0.18373974 -0.05668183 -0.07606299 -0.033206757 0.06734468 -0.043718815 -0.025707075 0.18519105
-0.026454484 0.067803875 -0.023924576 -0.0054295794 0.05842864 0.17005974 0.1471667 0.0491358
-0.029757123 0.22449414 0.09945134 -0.026290987 0.15668812 -0.017149905 0.0039586234 -0.01742311
-0.021462247 -0.027185027 -0.20375037 0.20014814 0.0060826233 -0.020454211 -0.06608919 -0.03252207
-0.067752056 -0.025829228 -0.010011436 0.015810486 -0.013027922 0.10317593 -0.0319568 -0.008338557
0.018267171 0.026668819 -0.0041288096 -0.0027071447 -0.04739052 0.01981645 0.10054365 -0.00091347937
-0.04298536 0.058793835 0.030006606 0.060523298 0.3191624 -0.042817224 0.029653568 -0.041751355
-0.00851341 -0.016072089 -0.03415713 0.01874974 -0.048792567 -0.00045165906 -0.041899025 -0.027047627
-0.01908549 -0.043257955 -0.012258069 -0.015463391 0.14577737 0.14536849 -0.015537457 -0.00890688
0.0053304415 -0.010160499 0.15408817 0.026293319 -0.0020466577 0.017864877 -0.0250495 -0.07347426
-0.031470265 -0.036075167 0.009804064 -0.010417077 0.12659417 0.07371989 0.008808091 0.003123633
-0.08024882 0.14325622 -0.02076058 0.17176262 -0.045773212 -0.0756688 0.2535503 -0.01587556
0.05452663 -0.0005721021 0.102255285 -0.018838117 0.120211326 0.05498389 -0.053676266 0.053155143

fc2.weight f4 [13, 128]
00000000: 1dd4 0d3d 822c 01bd 6dad a23b c04d 92bd
00000010: b0ca 92bd 933d b2bd 9fb3 ed3d 0b06 13be
00000020: b0fe cebd 0040 1037 d849 d9bc 4ed9 cebd
00000030: 5276 f83d 99a3 3a3c 6f22 38bc 2f78 15bd
00000040: 6ae4 8bbe 6c11 793d fdd4 cdbd 49fd 6abd
00000050: 560f 053e c404 16be 3fc1 21be 8a9c a1be
00000060: 63a4 633e 418b b0be 142d a1bd 7f95 c33c
00000070: b4ca 2f3e bb7f 68ba e2a9 773d 8530 363d
00000080: 7590 753d 910f e73d 5eea 92bd 3cea c6bd
00000090: a29e 24bc 9f08 d8bd 2278 45be 0d34 d3bd
000000a0: d83d 2abd a4fb e83a 17b1 093e 8df9 b73c
000000b0: 9114 45be 8de8 953d 1b73 133d 029a e13c
000000c0: b223 b0bb 625a 053c a70a 753d 187d 8fbb
000000d0: adc5 a73d ce6a 423d 2e75 c53d 0218 393d
000000e0: cce7 9bbd 7c56 d5bd 6aa3 8ebd f876 39be
000000f0: 672e 843d 3508 0ebd 3adf 553c 38fb 37bd
00000100: 2229 633c 188e 74bd 4dca 27bc b249 e2bd
00000110: 1d90 dc3c b78f 833d 5aff 183e c7c0 453d
00000120: 85a8 373c 4bac a13d 03d4 61bd f8f5 d7bd
00000130: 2b16 8abd b1cd efba b3e7 df3c 9304 4e3d
00000140: 6623 893c b661 d93c ec15 0d3c fa75 83bd
00000150: 198b 93bd 5949 99bb 4eb8 133d 4ac1 47bd
00000160: 4579 773d c76e 8d3d eb7b 893d 13e9 543d
00000170: 60f1 143d 0b8e 68be 5566 debc 2d3d 7e3d
00000180: 0972 513d b551 943d f526 533e 9573 fc3c
00000190: 26b9 e4bc 2270 6a3d 25cc 673d 2957 39bd
000001a0: e163 b5bb 69da 2fbd 0749 03be bb7e f9bc
000001b0: 82c0 1c3e f328 20be 2b10 e7bc 747f 79bd
000001c0: 4248 e53b d95b 13be 36b5 773c 1e3c fc3d
000001d0: 223a fc3c 2055 5dbd 4466 843d 0ec1 923d
000001e0: 1a4f 00be 7aaf 52bd 2dae e0bc f3d3 9a3c
000001f0: a8b1 08be 385b 36be cd74 4bbd 73ee e1bd
00000200: 0ca1 b73d ab60 08bd 3549 9bbd d18b e5bc
00000210: 02c8 2e3c 8386 3cbd b97b 1abe 8ed3 2c3d
00000220: 2ee5 e43d 1b71 34bd 8f16 0d3e 822c 91bc
00000230: c62a 0cbe a086 ccbd d188 f93a f524 8f3d
00000240: 6581 85be fb42 9abd 82b6 64be 5384 27be
00000250: c341 3c3d 079b 97be ac16 e03d bd51 05be
00000260: cfc2 e2bd 73be 5abd 272d 5a3d 863f 9bbd
00000270: c19e 06be 7095 60bd 3a57 203d 88e1 8bbe
00000280: 1383 0fbe 2c20 893b 3df1 5cbd 9f24 04bd
00000290: e60b af3d 24a2 a4be 4862 01be 596d 0dbd
000002a0: 48f2 473d 6cc3 e9bd 38b0 ce3d 0fa3 a0bc
000002b0: 8082 22bd 0600 6a3d a54b 5abc 46a4 c7bc
000002c0: ca0d f53c 2fea 133d 8308 a1bc 998b 01bd
000002d0: f159 083c f3d1 56bd b6b1 39bb c029 e13c
000002e0: 71dc 3a3c 0839 11be ae84 4cbd 98bb 50be
000002f0: 8525 49bc c827 87be d15b 443d 7710 74bd
00000300: 681e ba3d 0ee4 a23d 6c5f 1e3d 8718 913d
00000310: 8a65 313d 5f6f 4abd e6d0 3b3b 8309 21bc
00000320: 18fc 9c3c f842 0d3e ee8e 01be e7bd fa3d
00000330: d0e9 1d3c 8900 6cbd c84e 08be 4189 ab3c
00000340: a39c 663c 0b86 ccbd 9f78 70bd b90b 453c
00000350: 0485 8c3c 5808 4bbd 4acb cf3c 3a9b ae3d
00000360: da3e eb3c c7b8 7f3d 90f6 b73d 8ee9 39bd
00000370: 99e2 153e 0c82 2cbe e33f 81bd 3bb1 00be
00000380: 4eb9 173e a3ae 2abc 919f 04be 83a8 563d
00000390: 1bfa 143d ba75 28bd bffb 33bd 8cd1 2abd
000003a0: 1b10 61bd cae9 283b aee4 b3bc ac59 c43c
000003b0: 8073 9cbd 481c 39be ebab 23bc 3a4c 72bd
000003c0: e5eb 873d f959 1bba 3968 383c 210e b9bc
000003d0: d744 923d 9b90 883c e22e 28be f93b dc3d
000003e0: 5e7e 4fbe 6c7c 75bd a386 b1bd f4aa 903d
000003f0: 3a07 bd3d 593b 66bd 451e 3c3c 31c5 c33c
0.034626115 -0.031536587 0.0049645216 -0.07143736 -0.07167566 -0.087031506 0.11606526 -0.14357774
-0.101071715 8.59797e-06 -0.02652447 -0.10100041 0.12131943 0.011391544 -0.011238678 -0.03649157
-0.27322704 0.06080763 -0.1005039 -0.057370458 0.12994131 -0.14650255 -0.15796374 -0.31564742
0.22230677 -0.34481242 -0.07869926 0.023874996 0.17167169 -0.0008869131 0.060464747 0.044479866
0.059952218 0.11282266 -0.07173608 -0.097126454 -0.010047587 -0.10548519 -0.19284108 -0.10312662
-0.041562885 0.001777519 0.1344646 0.022457862 -0.19246127 0.07319746 0.035998445 0.027539257
-0.005375349 0.008139225 0.059824612 -0.004378926 0.081920005 0.047465138 0.09641491 0.04518891
-0.07612571 -0.10416886 -0.069647625 -0.18111789 0.06454163 -0.034675796 0.01305371 -0.044917315
0.013864787 -0.059705824 -0.010241103 -0.110492125 0.026924187 0.06423896 0.14941159 0.04827955
0.011209612 0.078941904 -0.05513383 -0.10544962 -0.067425095 -0.0018295554 0.027332162 0.05029733
0.016740512 0.02653585 0.008611184 -0.064189866 -0.07204265 -0.004677933 0.03606444 -0.04876832
0.060418386 0.06905895 0.067130886 0.05198009 0.036363006 -0.22710435 -0.027148405 0.06207006
0.051134143 0.07242147 0.2062033 0.030816833 -0.027920317 0.057235844 0.05659117 -0.045249138
-0.005535588 -0.0429329 -0.12820826 -0.030455938 0.15307811 -0.15640621 -0.028205952 -0.060912564
0.006997139 -0.14390506 0.015118888 0.12316154 0.030789439 -0.05403626 0.06464818 0.071657285
-0.12530175 -0.05143688 -0.027426803 0.018899893 -0.1334902 -0.17808235 -0.049671937 -0.11031809
0.08966264 -0.033295315 -0.075823225 -0.028020771 0.010667803 -0.046026718 -0.15086259 0.04219394
0.11176525 -0.04405318 0.13778137 -0.017721418 -0.13688192 -0.09986615 0.0019037967 0.06989471
-0.26075283 -0.07532307 -0.22335246 -0.16359071 0.045961153 -0.29610464 0.10941824 -0.13019462
-0.11072313 -0.053404283 0.053265717 -0.075804755 -0.13146497 -0.054830015 0.039145686 -0.27320504
-0.14014845 0.0041847434 -0.053941 -0.032261487 0.08547191 -0.32154953 -0.12635148 -0.03452811
0.04881504 -0.11414227 0.10092205 -0.019609002 -0.039675236 0.05712893 -0.013323699 -0.024370324
0.029913802 0.036112007 -0.019657379 -0.03162727 0.008322225 -0.052446317 -0.0028334684 0.027485728
0.011405096 -0.14181912 -0.04993122 -0.20384061 -0.012277012 -0.26397538 0.047939125 -0.059586015
0.09087831 0.07953654 0.03866522 0.07084756 0.043309726 -0.049422618 0.0028658449 -0.009828928
0.019163176 0.13795078 -0.1265218 0.12243252 0.009638265 -0.057617698 -0.13311303 0.020939471
0.014075431 -0.09986504 -0.058708783 0.012026721 0.01715327 -0.049568504 0.02536549 0.08525701
0.028716493 0.062432077 0.08982575 -0.04538875 0.14637221 -0.16846484 -0.063110135 -0.12567608
0.14816782 -0.010417613 -0.12951495 0.0524068 0.03637133 -0.041127898 -0.043941256 -0.041703746
-0.054947 0.0025774115 -0.021959629 0.02396854 -0.076392174 -0.18077195 -0.009989719 -0.059154727
0.0663679 -0.0005926188 0.011255317 -0.022589745 0.071420364 0.016670516 -0.16424134 0.107536264
-0.20263049 -0.05993311 -0.08668258 0.07063857 0.09229894 -0.056208942 0.011481826 0.02389774

fc2.bias f4 [13]
00000000: c77b 23bc 6f4d 81bd 0da3 203e 1cae b3bc
00000010: ce19 71be f7f9 05be accb d3bb f2f0 01be
00000020: f093 34bc a9ba b43d 6ea8 acbd 7580 643d
00000030: b1e1 84bd
-0.009978241 -0.063135974 0.15687199 -0.021933608 -0.23545 -0.13083635 -0.0064634886 -0.1268957
-0.011021599 0.08824665 -0.08430563 0.05578657 -0.0648836
